GloVe/model_dw/model_16.pth (torch, 916475 bytes, 4 tensors)

weight f4 [6719, 16]
00000000: c07d 4abc 3e56 093b 9cb1 b83b 1768 9abc
00000010: 2a97 8bbc 07e2 02bc bca7 92ba 90d4 aabb
00000020: 4d39 423c a85e e2bc 9439 acb8 391e 5b3c
00000030: eb77 9b3b 84ee 90b8 9f94 a938 bc87 2a3c
00000040: b181 08bf dab9 503f 0d2e 2cbf bcee b9bd
00000050: 3019 bbbe dee1 60bf 2d36 27bf 826d bd3e
00000060: 9095 e0be 07a8 263e 08c9 2dbe 20a4 d4be
00000070: 7546 0cbd ccbe 493e 2d95 febe b74e 8f3d
00000080: 2f03 0bbf 8c9a 7f3f 4206 9abe eb80 0a3f
00000090: 1d1d 2bbf 21c4 663f 5f3a 29bf f90b ca3e
000000a0: 4822 56be 4fda 2a3f a186 0fbf 1a3d e0be
000000b0: 7046 83be 20f4 073f 5b5b 05bf 55d4 aebc
000000c0: c4f2 afbe dc20 6e3f f9d2 3fbe e25d c2be
000000d0: d29b bbbe 0d66 05bf b8c9 d3be 737c e53d
000000e0: cf54 dcbe b48e bd3e 4a27 d4be 609f a9be
000000f0: 386c 0fbf 49a1 3f3e ef7f 01bf bae3 d3bd
00000100: 7a8a bebe 63a6 2f3f f91a a4be 1bde 4c3d
00000110: a917 20bf 9539 7ebd 5ec0 ecbe a030 023d
00000120: e905 3bbe e0c9 653f 0e74 a9be e412 eebe
00000130: 888b 623e 9bc9 093f 3624 45bd 5b40 18bf
00000140: ff3b afbe 1b5e db3e 7834 5ebe aa29 52be
00000150: 08c3 b2be cf50 d0bd 3daa 36bf 4533 763e
00000160: 5b4f 31bf 511b 283e 80e0 45bd b1c3 30bf
00000170: 4116 22bf ff04 943e dc02 aebe be31 bcbe
00000180: 7c87 22bf 1ad5 333f 3489 c5be a338 3d3e
00000190: 93b5 d9be 6744 edbe 1ec0 c0be b42f b7bd
000001a0: 837c 04bf baf2 fa3e ecc9 3c3c 6ce9 e9be
000001b0: 93e2 69be 6ada 803d 2ee2 ebbe 9108 f7bd
000001c0: dc90 903e ef15 0e3f 1118 9b3d b52e b33e
000001d0: 3c42 adbe f061 13bf 7931 8dbe 963d 2d3e
000001e0: 3f5d b4be 67ed 133f e4ba 4ebf 0181 59be
000001f0: 2749 f2be 3f86 fb3d 4a16 96be 844c 4a3c
00000200: c66a e4be 4872 1c3f 79cc 5bbd 7787 c63d
00000210: c899 c9be 6739 29bf 26f4 38bf 7326 98bd
00000220: 51e6 2fbe a276 7c3e 8380 54be f747 ddbe
00000230: 1de9 9dbe 2677 afbc 2255 a2be c7e7 1dbc
00000240: e87a babe f395 0e3f b422 5fbe ab0f 093e
00000250: eef7 0abf c036 5dbf ff06 02be 85a1 b23e
00000260: bb7f f0be d0fd c13e c429 2a3e 4c03 ebbe
00000270: e60f 0dbe f87b b83e 3615 3ebe 55ef 86be
00000280: ef4a adbe 18fb 433f 1431 e0be 24d9 17be
00000290: 0ad9 55be c36a a8be 2fe4 943d f67f 043d
000002a0: 1a46 f3be 866d aa3e 7f6a 0cbf 4d63 e5be
000002b0: a151 7fbe e9a6 1e3e 4990 19bf 4cc6 2fbe
000002c0: 3216 e5be f7aa 8f3e e4d9 28be df33 b23e
000002d0: fd04 1dbf b0ce 763f 1e47 2dbf b9bd 583e
000002e0: 6a75 4abf 160e a13e c3b8 e9be 6f7d 28bf
000002f0: 6491 aabe 3c10 9d3e f6d3 3ebf b7f7 87be
00000300: 559a 46be 0fed e53e 4abf 33be 0de5 2b3e
00000310: 743c 25bf 8d3d 46bf c074 52be a842 923e
00000320: d858 00be cd04 a63e b9ba 8ebe e2b0 b1be
00000330: 9e16 91be c5d4 8d3e bcf5 29be 4f86 14be
00000340: 95ea d4bc 8fe0 dc3e 8f88 73be 5062 6a3e
00000350: 2c2f 23bf f32e 79bf a75c b0be 0150 a53e
00000360: f3d9 aebe 4d0e d93e fafc 81be 7f6f 1bbf
00000370: f51d e1bd 1072 0a3f ac6e e03c 61da 75be
00000380: 44db 87bd 5fb9 1a3f de93 bbb9 6f18 703e
00000390: e4c9 03bf f161 2dbf b71b 13bf 668c 473e
000003a0: 337a 69be a271 a03e bafd 54be be50 e8be
000003b0: 0998 86be 8f05 993d bcf9 0abe 10d5 b7be
000003c0: 5f32 8bbe b20a d33e 5891 e1be 4505 0c3d
000003d0: 82c1 bdbe f86f a7be 6751 8ebe 2797 d73e
000003e0: 0284 81be 1399 b13e 9555 b9be 2a98 06bd
000003f0: 0409 6abe f6b0 c83e 2947 ccbe d953 11be
-0.012359083 0.0020955945 0.005636407 -0.018848462 -0.017039854 -0.007988459 -0.0011188905 -0.0052133277
0.011854482 -0.027633026 -8.212324e-05 0.013373905 0.00474452 -6.910882e-05 8.086231e-05 0.010408338
-0.53322893 0.81533587 -0.6725777 -0.09078738 -0.36542654 -0.87844646 -0.6531704 0.3699761
-0.43864107 0.16275035 -0.16971219 -0.41531467 -0.03424688 0.1970169 -0.49723187 0.069974355
-0.5430173 0.99845195 -0.300829 0.54102963 -0.668413 0.9014302 -0.6610469 0.3946226
-0.20911515 0.6673936 -0.560648 -0.43796617 -0.25639677 0.5310688 -0.5209252 -0.021341482
-0.34364903 0.9301889 -0.18732823 -0.37962252 -0.3664232 -0.5210884 -0.41364837 0.112053774
-0.43033454 0.37022936 -0.41436225 -0.33129406 -0.56024504 0.18713869 -0.50585836 -0.1034617
-0.37215024 0.6861326 -0.32051829 0.050016504 -0.625361 -0.062066633 -0.46240515 0.031784654
-0.18263973 0.8976116 -0.33096355 -0.46498787 0.2212354 0.5382325 -0.048130237 -0.594732
-0.3422546 0.42845234 -0.21699703 -0.20523706 -0.34914422 -0.10171663 -0.71353513 0.24042995
-0.6926171 0.1641667 -0.048309803 -0.690486 -0.63315207 0.28910062 -0.33986557 -0.367567
-0.6348798 0.7024704 -0.3858124 0.18478636 -0.42521343 -0.4634125 -0.37646574 -0.089446455
-0.5175249 0.4901331 0.011522751 -0.456859 -0.22840337 0.06291659 -0.46071 -0.12062181
0.2823552 0.5550222 0.0757295 0.34996572 -0.33839595 -0.57571316 -0.27576807 0.16918024
-0.3522739 0.5778412 -0.8075392 -0.21240617 -0.47321436 0.12281465 -0.2931388 0.012347344
-0.44612712 0.6111188 -0.053661797 0.096938066 -0.39375138 -0.66103214 -0.7224754 -0.074292086
-0.17177702 0.2465463 -0.20752148 -0.43218967 -0.30841914 -0.02141912 -0.31705576 -0.00963778
-0.36421895 0.55697554 -0.21790582 0.13384883 -0.5428456 -0.86411667 -0.12697981 0.34888855
-0.4697245 0.37888956 0.16617495 -0.45900953 -0.13775596 0.3603208 -0.18562779 -0.2635447
-0.33846232 0.76555014 -0.43787444 -0.14828926 -0.20883575 -0.32893953 0.07270085 0.032348596
-0.4751442 0.33286685 -0.5485 -0.44802323 -0.24933483 0.15493359 -0.59985787 -0.17165488
-0.44743496 0.28060123 -0.16489369 0.348052 -0.61335737 0.9640913 -0.6768664 0.21166123
-0.7908541 0.3145606 -0.45648775 -0.65816396 -0.3331405 0.30676448 -0.74542177 -0.2655618
-0.1939481 0.44907424 -0.1755344 0.16786595 -0.6454537 -0.7743767 -0.20552349 0.2856648
-0.12533891 0.32425538 -0.27876833 -0.34705263 -0.28337568 0.27701393 -0.16597646 -0.1450436
-0.025990764 0.43140075 -0.23782562 0.22889066 -0.63743854 -0.97337264 -0.34445688 0.322876
-0.34150657 0.42393723 -0.25388318 -0.60717005 -0.10992042 0.54080296 0.027396522 -0.24009086
-0.066336185 0.60439104 -0.0003577759 0.2344682 -0.51479936 -0.6772757 -0.57464164 0.19487152
-0.22800522 0.31336695 -0.20799914 -0.453741 -0.2628787 0.07471763 -0.13571829 -0.3590474
-0.27186868 0.41219097 -0.440562 0.034184713 -0.37061697 -0.32702613 -0.2779648 0.42107508
-0.25296026 0.346871 -0.36198106 -0.03285996 -0.22855002 0.3919751 -0.3989804 -0.14192142

weight f4 [6719, 16]
00000000: bb71 813c e007 473b 2a28 a53c 6dfe 233b
00000010: f66d 5abc fec7 d93c b90a b5bc 4eef 793c
00000020: f7fb 66bc fa14 0fbc b08b 2cbc e2e7 863c
00000030: c15c edb8 d1f1 17bb befb c73b 7366 4d3c
00000040: c425 8dbe dafa 093f 18d2 abbe 60da 14be
00000050: 067f ccbe 9ad4 33bf c334 b5be 2b67 013e
00000060: d29d 0fbf ff7f 6d3e 19f0 bcbd 57af c7be
00000070: ae08 f9be 331c 943e 1359 07bf 93da c63c
00000080: 2d8f 13bf b1e0 633f 5ae6 30be e922 a13e
00000090: 7d49 31bf dcf5 4d3f f0e2 18bf c7f6 b33d
000000a0: bddf d0bd b6f4 133f f565 ddbe 4d53 c4be
000000b0: 1fc8 ecbe b5e5 e83e e2ac eebe 2a51 3bbe
000000c0: 8121 02be 8036 2d3f 4e44 acbd 4bc4 213e
000000d0: 6aad 2bbe 7d69 01bf 95ec 1bbf 4513 3d3e
000000e0: a58b 18bf 8157 463c 5ece 03bf 8574 79be
000000f0: 56e4 a4be 4983 c63e f1ea e2be 0bd7 ca3d
00000100: 1f86 30be bcbf b63e 3662 17be 7e50 ec3e
00000110: 9959 febe 9468 733d 7159 b4be 0325 dd3d
00000120: f439 16bf d871 3f3f e926 82be 159b dabe
00000130: 652f adbe 9da2 033f a91e 353d 7a8d 193e
00000140: c6cc bebe da5f 773e da2e adbd 10c0 26bd
00000150: 3946 d4be 8e91 2cbd 6881 2dbf f21d 123e
00000160: 3d21 40bf 2085 983e f77f a13d 1327 20bf
00000170: f0f2 25bf 180d b33e 3da9 91be c93c 83bb
00000180: 0f97 d6be d1cb e93e 4a02 6fbe 7023 9c3e
00000190: 6684 64be 95db dfbe 6359 abbe da3b c5bb
000001a0: 8b6b 24bf 1689 473e 8a71 ddbd 89ca d3be
000001b0: 39d1 5fbe 35da a23e ae05 12bf bf36 123d
000001c0: d784 f23c 4af7 143f 0345 c53c 5ff3 d83e
000001d0: aaee 19be abb1 07bf 7cfa 77be 569a 003e
000001e0: 3cfc 91be b305 123f 90c2 8cbe 746c 8abe
000001f0: 723f c3be b0b2 a63c 578e b2be 9f86 b13c
00000200: e5a7 5dbe f0d8 e23e 7983 2b3e bfdf 533d
00000210: fdff a2be e9d5 1dbf 9c32 19bf 25f5 4f3c
00000220: b245 9bbe 0ea3 213e 45ab c0be dcef 96be
00000230: 8407 8dbe 4c6f b13d 1d35 e5be 8cf4 913d
00000240: 6ec3 b1be cd12 a43e e20f 92be 7ef6 6a3e
00000250: db94 f0be 2612 49bf feef 91be 04db d43e
00000260: c1fe adbe 5149 5d3e 6f32 2abd a919 b7be
00000270: ad7b f5bd 354a 883e cd6b 58bd 07d7 e13c
00000280: 3ed4 96be ae7e ce3e 03e7 4ebe 2ee5 af3d
00000290: c5f3 003e 50fe a2be 5690 6bbe ab57 183e
000002a0: 9c3b edbe c255 1d3e a36f 01bf a20a ffbe
000002b0: 6ae4 37be cfbd 533e b470 17bf 3dd3 11be
000002c0: 2325 e7be c9ef c53e 5209 58be 08e1 5e3e
000002d0: 8589 00bf 56b3 493f f837 09bf b4a6 863e
000002e0: 25e3 45bf d35e a63e 1462 acbe 7d75 06bf
000002f0: 1f32 99be 57de 753e 5de7 2ebf 5c67 31be
00000300: c992 2dbe 65d8 643e 676d 08bd a559 133d
00000310: 2469 fbbe dd9b 18bf 73e2 d9be 2dd0 093f
00000320: e8a6 94be b047 323e d73f 32be c7b7 cdbe
00000330: 1175 63be 311a 673e 952e 053c da4f 0dbe
00000340: 0e0d 70be c1b0 ac3e 2894 a5bd f07f 943e
00000350: 39e5 17bf ea56 5bbf c2c9 2ebe f87d 2a3e
00000360: 84ec b2be 490f d23e bb22 3bbe 0f25 fabe
00000370: 837a 1cbe 5e7c ab3e dc35 22bd 9ea3 83be
00000380: 577a 463c feb8 a93e 40cf 08bb f01d a13e
00000390: 9005 71be bc71 25bf 7531 14bf 2d8f 343e
000003a0: 5362 91be a4c1 d53e 5bcb 53be a106 edbe
000003b0: 4d39 20be c32d 3f3e 9ce0 2cbe 9cbc c0bd
000003c0: b2c0 a0be d8aa 283e 78e9 f8be 181a 10bd
000003d0: b170 b1be c733 a1be 9432 3cbe cc79 b43e
000003e0: 1c2e c2be 320f 9e3e 8c17 cbbe aee7 aebd
000003f0: 1372 0cbe 8abd 7c3e 3242 bbbe 2f5a a83d
0.015801301 0.0030369684 0.020160753 0.0025023476 -0.013331881 0.026584622 -0.02209984 0.015254809
-0.014098159 -0.008733029 -0.010531351 0.016467992 -0.000113183174 -0.0023184905 0.006103008 0.012536633
-0.27567875 0.53898394 -0.33558726 -0.14536428 -0.3994066 -0.7024628 -0.35391816 0.12637012
-0.5610019 0.23193358 -0.092254825 -0.3900096 -0.48639435 0.28927764 -0.5287029 0.024274146
-0.57640344 0.89014727 -0.17275372 0.31471947 -0.6925276 0.80453277 -0.5972128 0.087873034
-0.10198925 0.57795274 -0.4324185 -0.38344803 -0.4624643 0.45487753 -0.46616274 -0.1829268
-0.12708093 0.67661285 -0.084114656 0.15797536 -0.16765371 -0.5055159 -0.6090787 0.18464382
-0.5958808 0.0121058235 -0.51486766 -0.24360855 -0.32205456 0.38772038 -0.4431987 0.099042974
-0.17238663 0.35693157 -0.14783558 0.4615516 -0.49677733 0.059425905 -0.35224488 0.10798075
-0.5868218 0.74783087 -0.2542031 -0.42696443 -0.33825222 0.51420003 0.044218693 0.14995375
-0.37265605 0.24157658 -0.08456202 -0.04071051 -0.41459826 -0.042131 -0.67775583 0.14269236
-0.7505072 0.29789066 0.078857355 -0.6255962 -0.6482382 0.34970927 -0.2844943 -0.004005049
-0.41912124 0.45663312 -0.23340717 0.30495787 -0.22316131 -0.43722215 -0.33466634 -0.0060190978
-0.642266 0.19485888 -0.108126715 -0.4136546 -0.21857156 0.31807104 -0.57039917 0.03569674
0.029604359 0.58189833 0.024080759 0.42373177 -0.1503245 -0.53005475 -0.24216646 0.12558874
-0.28512752 0.57039946 -0.2749219 -0.27035868 -0.38134342 0.020348877 -0.34874222 0.021670638
-0.21646078 0.44306135 0.16749372 0.051727053 -0.3183593 -0.61654526 -0.5984285 0.012692724
-0.3032661 0.15784857 -0.37630668 -0.29479873 -0.27544796 0.08663806 -0.44767085 0.07126722
-0.34719414 0.32045594 -0.28527743 0.22945592 -0.46988568 -0.7854332 -0.28503412 0.41573346
-0.33983424 0.21609999 -0.041552003 -0.35761765 -0.1198648 0.26619115 -0.05283718 0.027568353
-0.29458803 0.40331024 -0.20205311 0.085886344 0.1259299 -0.3183465 -0.23004279 0.14877193
-0.4633454 0.15364745 -0.5056097 -0.498128 -0.17958227 0.20677875 -0.59156346 -0.14240737
-0.4514552 0.38659504 -0.21097305 0.2176553 -0.5020984 0.7878927 -0.53601027 0.2629906
-0.7729972 0.3249422 -0.33668578 -0.5252302 -0.29921052 0.24010597 -0.6832178 -0.17324585
-0.16950525 0.22348173 -0.03330746 0.035974164 -0.49103653 -0.5961283 -0.4255558 0.53833276
-0.2903359 0.17410159 -0.17407165 -0.40179273 -0.22212626 0.22568585 0.008128782 -0.13799992
-0.2344248 0.33728603 -0.08084899 0.2900386 -0.5933414 -0.85679495 -0.17069152 0.16649616
-0.34946072 0.41027287 -0.18274967 -0.48856398 -0.1528111 0.33493322 -0.039602146 -0.25710768
0.012114129 0.3314895 -0.0020875484 0.31468153 -0.23537278 -0.6462667 -0.57887965 0.17632742
-0.28395328 0.417493 -0.20683043 -0.4629412 -0.15646859 0.186698 -0.16882557 -0.094109744
-0.31397015 0.16471422 -0.48615623 -0.035181135 -0.3465629 -0.31484815 -0.18378669 0.35249174
-0.37925804 0.30870968 -0.39666402 -0.08540283 -0.13715391 0.24681678 -0.3657394 0.08220326

weight f4 [6719, 1]
00000000: 0000 0000 ab69 353f fac9 063f 2c1b 0f3f
00000010: 02d1 103f f178 043f 2b91 ef3e 42de 0a3f
00000020: de1e 863e ff22 533e 524e 963e d629 413e
00000030: 8c60 763e 0fa7 483d 2dd3 e93d bb16 453e
00000040: 19a2 ce3d 4e4d 033e c9d7 013e a0d9 e43d
00000050: d52b c03d aee0 053e 160c b53d c7c9 ac3d
00000060: 87f6 b33d 97af 293e 7f7d 343e 312d 96bd
00000070: 20a9 e9bd 929d 883b 4b2f 363d b05b 033e
00000080: 7c65 913d e01f 113c 2aa4 323d 910b 15be
00000090: b779 46bd f6fc 90bd 2f41 94bd fbcb eebd
000000a0: b644 54bd 08a8 2f3c 8d7e dbbb dd70 6a3d
000000b0: e837 80bd ba62 983d fa61 053e d36b df3b
000000c0: 606d e13c 72e1 a4bd bf07 dabc 3423 c4bd
000000d0: ddb0 5abb 994e 1cbe 692d 94bc 2d9b 35bd
000000e0: 35af 08be 8b42 dcbd 5060 64be 2a07 e5bc
000000f0: 15a2 07be 0a3a d2bd 9ed6 f2bc 3b39 b7bd
00000100: b4ea 573d e2cb 3cbe eaa8 70be 7706 4a3d
00000110: 966e 28be 6b47 c0bd bb5a 463e 94b4 4abd
00000120: a621 62be 06bc f5bd b949 3cbe e7c1 91be
00000130: 8516 1d3e 5bad 30be 90dd 3bbe 16e7 f03d
00000140: 6f25 473d b3e5 4fbd d5ab 8cbd 6f82 3ebe
00000150: 1297 e8bd 840f 74be 1bf1 c0bd 19eb 69be
00000160: dcff 25be d41e 50be c8e5 05be 8045 ddbd
00000170: 68ca 33be 2ac0 12be de91 483d 23f7 5a3c
00000180: 0c62 28be e2de 6abe 21c7 89be ede3 42bd
00000190: 1d4e bdbd 9af1 d6bd c4d5 24be 0178 b63d
000001a0: 249a 0bbe edeb 67be 2586 30bd 308e 47be
000001b0: c368 e33d 72e5 0e3d 96f4 77bd f90e ac3d
000001c0: 96a3 a0be b14c 4cbe 1ae4 933c 1135 4abd
000001d0: c9df 31be 2078 9cbe 9467 5cbc bbbf 97be
000001e0: 2dd8 4cbe 89df 2cbe c3d2 6bbe 1870 b4bd
000001f0: 8ecf 043e 7cb8 cb3d 88aa 90be 8b68 823e
00000200: b2c2 c7bd 694c 03be 90ff ffbc ad67 49be
00000210: 517c b6be 7fae fcbd 21ee 173e f950 b73d
00000220: 1129 83be 5eb3 28be 869a 81bd ad1d 4abd
00000230: 093e 0bbe 9923 10be 8f22 2bbe f6ca 55be
00000240: d0a2 ebbd 2ffb a3bb 710e b9be 5664 4fbe
00000250: d62b bebb 6a8f 90be 0f4a 15be 9172 98be
00000260: 8966 2dbe 26c1 8bbe ecb7 74be de0b fabd
00000270: 2484 a5be 9282 f13d 482a 84be a130 81be
00000280: 591e 98bd 2430 32bc f116 1bbd 8be0 96bd
00000290: 3793 dcbd 9e8f 62be 2d14 6cbd 52e3 68be
000002a0: dc03 93be 8fbe 0bbe f808 4cbd a967 0d3d
000002b0: 6e4f c0bc e4e4 8cbd c156 47be 57c6 b2bd
000002c0: 3ab0 303e 2f0f 2cbe 13a2 77be b788 1fbd
000002d0: bdb8 a0be 7e19 07be d4e6 75bc 4528 14be
000002e0: 3f66 04be 1e2f f2bd 2236 8ebc 3452 50be
000002f0: 19f9 01bd 64a4 1dbe d12c ebbd 7b77 5cbe
00000300: b761 c83d 78e7 77be 6aa8 92be f6ce cd3c
00000310: 511d 673c d831 a2be ee48 a1bc 7a66 9abe
00000320: cda5 cfbe 27ff a6bd 6889 82bb e026 c5be
00000330: 6eba 86be 2979 ec3c 688d 19bd 02f2 463d
00000340: fa42 58be 51b4 a8be 9223 a3be e7ad 1cbe
00000350: f1bb 9dbe d3bf 66be 48af 3bbe 8135 ba3e
00000360: 258a f1bd 2fed a53b cb5b d7bd ef78 feba
00000370: ac06 49be 37f2 f5bd 9a58 cabe ecc9 883d
00000380: 8b7e 51be 461f 3cbe a259 03bf 4015 8cbd
00000390: e17f a1be 4037 08be 7bae 67be df4f 85bd
000003a0: 9d67 e6bc 359e 2cbe 289f b2be 0057 253d
000003b0: 6b1a 97bd 7683 cfbd 7c34 bd3d 6430 88bd
000003c0: 7973 e3bd db92 2abe 3f3c 08bd d7ad 75be
000003d0: e9e0 32be 1001 6d3d e575 f73b cedc 343e
000003e0: 9c48 bfbe 1044 5a3d 4db3 a2be 10bf a1bc
000003f0: 640b 05be 1b10 16be 9c77 1a3e e688 833c
0.0 0.7086436 0.5265194 0.55900836 0.5656892 0.5174704 0.46790442 0.5424539
0.26195425 0.20618819 0.2935663 0.18863615 0.24060267 0.048987444 0.11417232 0.19246952
0.100895114 0.12822458 0.12679972 0.11174321 0.0938336 0.1307399 0.08840196 0.084369235
0.08787256 0.16570888 0.17625998 -0.07332838 -0.11409211 0.0041691745 0.044478696 0.12827945
0.07099435 0.008857697 0.04361359 -0.14555193 -0.04845592 -0.070794985 -0.07238995 -0.1166
-0.05182334 0.010721214 -0.0066984356 0.05723654 -0.06260663 0.074407056 0.13025656 0.0068182736
0.027517974 -0.08050813 -0.026615022 -0.09577027 -0.003336958 -0.15264358 -0.01808806 -0.04433744
-0.13348086 -0.107548796 -0.22302365 -0.027957518 -0.13245423 -0.10264976 -0.029643353 -0.08946463
0.052714065 -0.1843715 -0.23501936 0.04932257 -0.16448435 -0.09388622 0.19370548 -0.04948862
-0.22083148 -0.11998753 -0.18387498 -0.28468248 0.15340622 -0.1725363 -0.18346238 0.11762826
0.048619684 -0.050756168 -0.06868712 -0.18604444 -0.113569394 -0.23834044 -0.09420987 -0.22843589
-0.16210884 -0.2032426 -0.13075936 -0.10804272 -0.1755768 -0.14331117 0.048967235 0.013364586
-0.16443652 -0.22936586 -0.26909736 -0.04758065 -0.092434146 -0.104953006 -0.1609717 0.08909608
-0.13633019 -0.22648592 -0.04309668 -0.19487834 0.11103966 0.034886785 -0.06053599 0.08401293
-0.31374806 -0.1995113 0.018053103 -0.049367014 -0.17370524 -0.30560398 -0.013452429 -0.29638466
-0.2000434 -0.16882147 -0.23029618 -0.08810443 0.12969801 0.09947297 -0.28255105 0.25470385
-0.09753932 -0.12822117 -0.031249791 -0.19668455 -0.3564172 -0.1233797 0.14836933 0.08950991
-0.2561727 -0.16474673 -0.06328301 -0.049344707 -0.13597883 -0.1407608 -0.16712402 -0.20878205
-0.115056634 -0.0050043087 -0.3614383 -0.20253119 -0.0058035655 -0.28234416 -0.14579032 -0.29774907
-0.16933645 -0.27295798 -0.23898286 -0.12209295 -0.32327378 0.117924824 -0.25813508 -0.25232413
-0.07427663 -0.010875735 -0.037863676 -0.07367047 -0.107702665 -0.22125098 -0.05763643 -0.22742966
-0.28713882 -0.13646911 -0.04981324 0.034522686 -0.023475375 -0.06879595 -0.19466688 -0.087292366
0.17254725 -0.16802667 -0.2418292 -0.03894874 -0.31390944 -0.13193318 -0.015008647 -0.14468487
-0.12929629 -0.11825393 -0.017359797 -0.20343858 -0.0317317 -0.15394741 -0.114831574 -0.21529953
0.097842626 -0.24209392 -0.28644115 0.0251231 0.014106111 -0.31678653 -0.019688096 -0.30156308
-0.40556183 -0.08154135 -0.0039836653 -0.38506222 -0.2631411 0.028866367 -0.03748837 0.04857064
-0.211193 -0.3295007 -0.31863075 -0.15300713 -0.3080745 -0.22534113 -0.18328583 0.36368945
-0.11793927 0.005063675 -0.10515555 -0.0019414703 -0.19631451 -0.120090894 -0.39520723 0.066791385
-0.20458429 -0.18371305 -0.51308644 -0.068399906 -0.31542876 -0.13302326 -0.22625153 -0.06509375
-0.028125579 -0.16857226 -0.34887052 0.040366173 -0.07378086 -0.10132496 0.09238526 -0.06649855
-0.11106009 -0.16657583 -0.03326058 -0.23992096 -0.17468609 0.05786234 0.007551896 0.17662355
-0.37360084 0.053287566 -0.3177742 -0.019744426 -0.12992626 -0.14654581 0.1508469 0.01605649

weight f4 [6719, 1]
00000000: 0000 0000 f36c 3c3f 7786 cd3e 510a 073f
00000010: 3684 0c3f db0a d53e a134 e33e 6793 103f
00000020: 7e32 8e3e 0262 7e3e 8414 923e 9012 8b3d
00000030: 7316 863e 625b bb3d 7fe6 0c3e 9bec 383e
00000040: e91a 253e 8abf 8f3d eab4 bd3d 5c8b f33b
00000050: 0578 86bc b68d 013e 2b1f 433e b187 d23d
00000060: 8ad6 da3d 0d76 2b3e fc6f 493e 9d6b f5bc
00000070: e2f3 bbbd 72b9 8e3d ecc6 443d 2883 d63d
00000080: 1a23 c13d a93f 093d acb5 cb3c d057 84be
00000090: 08af 3abd d14b 56bd 3eca 06be ec4f 5bbe
000000a0: 6d5b e9bc b601 ee3c b419 2dbd 5dc7 d93d
000000b0: 2a4c cfbd 8151 8a3d fc8c 143e ad82 88bd
000000c0: 0966 a93d fd87 b2bd e738 23bd 1a5e 17be
000000d0: c27a bd3c 5589 25be 8d07 5bbd abe1 413d
000000e0: 288a f6bd f80f a3bd 708d 46be a273 3cbd
000000f0: f4ea 00be 2e4b 29be 4dda 46bd bfef 9fbd
00000100: 2ee8 a33d 3345 58be 6a65 70be 1bee 37bd
00000110: cb25 6bbe 2db6 4fbd 9ac6 2f3e fbc4 cdbd
00000120: a132 53be 8820 b0bd 3422 4abe b349 78be
00000130: e775 003e ddc3 3abe 8bd7 0ebe 6e72 1b3e
00000140: 8cd6 8bbb e0c5 263d 0e53 86bd 7cb6 1abe
00000150: c98a a0bd cd1b 62be 36f9 c8bd 7653 51be
00000160: 3eb1 21be e1d2 26be 71aa b5bd a2d8 dbbd
00000170: 46d4 29be 5e98 0abe e2a2 da3d 994d 1b3d
00000180: 467f ffbd 2467 5abe 5931 82be 1fd5 65bd
00000190: 7b7c abbd 9ac5 83bd c01d 14be f9ac c63d
000001a0: fbd6 10be ac87 3cbe eae2 d8bd 1ddb 57be
000001b0: 8f96 863d 75cc b53c 246f 5bbd 4df3 853d
000001c0: e7c9 8bbe 1d72 40be 85ff 9c3b 7f48 633b
000001d0: 0a73 28be af33 9abe 7fce 1dbd 16f0 91be
000001e0: e755 4dbe 67ff 25be d035 9abe a32c aebd
000001f0: 8f1f dc3d 46cc 473d 44ad 80be 7923 603e
00000200: 0762 d4bd 5c1d 23be 6f7b 91bc 37a4 4cbe
00000210: 3a82 c9be 2756 e6bd 6793 cb3d 210c 1f3d
00000220: 9692 6ebe 352d 27be c090 5fbd 6c88 753d
00000230: 2d0c 6dbd 3a11 b4bd a1e7 1abe b1d9 1ebe
00000240: 60a2 b0bd 2161 953c b913 abbe 0260 18be
00000250: 4b13 843c cc93 84be 0cea a0bd 6190 95be
00000260: 12b7 06be 5f9a 5cbe b22e 58be de8c 04be
00000270: 814e 92be 6d5b ce3d fba1 56be abdb 5abe
00000280: ab66 63bd ab9b 4d3c 58ac ea3b 0b10 84bd
00000290: bc5f 93bd 725c 48be a5ab 23bc 7b05 82be
000002a0: 766f 92be 0125 0dbe 3f49 c8bd a063 a13d
000002b0: 7ce9 a8bc 23d8 21bd 4eee 32be 1a96 85bd
000002c0: 2855 213e da13 22be b196 5bbe 5e65 153c
000002d0: b500 9cbe 44d1 efbd 1913 b0bd 9189 1dbe
000002e0: aa5e 12be eb97 0bbe f508 3d3d 399b 41be
000002f0: b6e9 133c 35a5 0abe 7485 adbd c943 4fbe
00000300: a542 b03d e3ab 66be e002 abbe 5cef 0d3d
00000310: 6917 883c c16f 9dbe 8b8b 443d 551b 98be
00000320: 8a2f c6be 167d 05be 4726 503c 28f0 aebe
00000330: df61 7bbe 5da7 0d3d d7b8 3ebd dd21 033d
00000340: 130d 39be 93e7 a0be ad88 90be 2b08 65bd
00000350: 52a1 8fbe 9e2f 67be 3267 30be 4e8c a63e
00000360: cc1a 86bd e379 393d 7949 babd a7ca aebd
00000370: 811e 45be 068b bbbd 43a1 adbe f023 513e
00000380: 850b 3abe d7bd 2ebe 342f eabe c13b 5ebc
00000390: 226a 91be 7dc1 0dbe edee 2fbe c787 2dbd
000003a0: f3d7 533d 5fed 0ebe c20e b1be beca 27bd
000003b0: 372f b2bd 0805 a6bd 304f 013e 6488 49bd
000003c0: 70c3 b2bd 8462 10be b640 acbc 06b9 78be
000003d0: 6b04 34be 06f7 363d 846a 7b3c e3d3 033e
000003e0: 06d6 b7be b3ba 183d 410b 8bbe 0b46 61bd
000003f0: fb96 01be 81b0 0abe 61e4 923d 00cd 963c
0.0 0.73603743 0.4014165 0.52750117 0.5488924 0.41609845 0.4437609 0.5647492
0.27772897 0.24842075 0.28531277 0.0679065 0.26189002 0.09148289 0.13759802 0.18059008
0.16123547 0.07018955 0.09263022 0.0074323844 -0.016414652 0.12651715 0.19054858 0.10279787
0.10685451 0.16744252 0.19671625 -0.02995854 -0.09177376 0.06968965 0.04804127 0.10474235
0.09430523 0.033507977 0.024866901 -0.25848246 -0.04557708 -0.052318398 -0.13163087 -0.21417207
-0.028485978 0.02905355 -0.04226084 0.10633729 -0.10121949 0.06753827 0.14506906 -0.066655494
0.08271415 -0.08717344 -0.03984919 -0.1478199 0.023129825 -0.1616567 -0.053473998 0.047334354
-0.1203807 -0.0796203 -0.19389892 -0.046008714 -0.12589628 -0.16532585 -0.04854803 -0.078094
0.08003269 -0.21120147 -0.23476186 -0.04490481 -0.22963636 -0.050710846 0.17165604 -0.10047337
-0.20624782 -0.08599955 -0.1973961 -0.24246864 0.12544976 -0.18238778 -0.1394941 0.1518037
-0.0042675193 0.040716052 -0.0655881 -0.15108675 -0.07838971 -0.22080918 -0.09813158 -0.20441994
-0.15790269 -0.16291381 -0.088704 -0.10734679 -0.16584882 -0.13534686 0.10675599 0.0379158
-0.12475447 -0.21328408 -0.25428274 -0.05611145 -0.08373352 -0.06434174 -0.14464474 0.09700961
-0.14144509 -0.1841113 -0.105901554 -0.21079679 0.065716855 0.02219222 -0.05357279 0.065405466
-0.27302477 -0.18793531 0.0047912025 0.0034680662 -0.16450134 -0.30117556 -0.03852701 -0.28503484
-0.200523 -0.1621071 -0.3011918 -0.085046075 0.10748207 0.048778795 -0.2513219 0.21888532
-0.1037026 -0.15929168 -0.017759053 -0.19984518 -0.39357167 -0.11246901 0.09940224 0.038829926
-0.23298106 -0.16325839 -0.054581404 0.059944555 -0.05787294 -0.08792348 -0.15127422 -0.1551273
-0.086247206 0.018234791 -0.33413485 -0.14880374 0.01612248 -0.2589401 -0.07857141 -0.29211715
-0.13155773 -0.21543263 -0.21111563 -0.12944362 -0.2857552 0.10076032 -0.20960228 -0.21372859
-0.055517834 0.012549321 0.0071616583 -0.064483725 -0.07195994 -0.19566515 -0.009989654 -0.25394806
-0.28600663 -0.13783647 -0.097795956 0.0788033 -0.020619147 -0.039512765 -0.17473719 -0.0652277
0.15755141 -0.15827885 -0.21444203 0.009118406 -0.3046929 -0.11709836 -0.085973926 -0.15384509
-0.14293924 -0.13632171 0.04615112 -0.18906869 0.009027889 -0.13539584 -0.0847272 -0.20240702
0.086064614 -0.22526507 -0.3340063 0.0346521 0.016612725 -0.30749324 0.04798464 -0.29708353
-0.38708144 -0.13035998 0.0127044385 -0.341676 -0.24549054 0.03458344 -0.046562996 0.032014716
-0.18071394 -0.31426677 -0.28229275 -0.055915993 -0.28052765 -0.22576758 -0.17226866 0.3252892
-0.0654808 0.045282256 -0.09096045 -0.085347466 -0.19249918 -0.09157376 -0.33912095 0.20423865
-0.18168457 -0.17064606 -0.45739138 -0.013564051 -0.28401285 -0.13843341 -0.17180987 -0.042365815
0.051719617 -0.13957737 -0.34581572 -0.040964834 -0.08700412 -0.081064284 0.12627864 -0.049202338
-0.08728683 -0.1410008 -0.02102695 -0.24289331 -0.1757981 0.044669174 0.0153452195 0.12873797
-0.35905474 0.037287425 -0.27157024 -0.05499844 -0.1265525 -0.13543893 0.07172466 0.018408298
